Diabetes.pt (torch_old, 6761 bytes, 6 tensors)

weight f4 [20, 8]
1.1362019 -0.89026684 0.18445526 -0.22227329 -0.6584193 0.43612418 0.41138324 0.25921896
-1.2624552 0.37701467 -0.35719302 -0.39942634 0.14766291 -0.25462255 0.25981316 0.21186051
-0.28944215 -0.22457942 0.019815767 -0.44032457 0.06694464 -0.8247642 3.5774438 -0.6324597
-0.26759377 -0.030964863 0.043638393 0.07959502 0.04985419 0.2632053 -2.2685153 -0.5286856
0.26417264 -0.10538086 -0.12172225 -0.123435184 -0.18394393 -0.0153849125 -0.19067895 0.10261753
-0.5965757 0.36019892 -0.18215308 0.17111768 0.045544177 -0.34377894 -2.09653 -0.72083735
-0.55785894 -0.51396483 -0.37005278 -0.4105893 0.046950437 0.1898537 -1.6892526 0.47720197
0.68495625 0.20244555 -0.32355815 0.594158 0.21140769 -0.4215398 -1.9208289 0.51906675
-0.21929537 0.23678555 -0.5346085 0.4701006 0.10577862 -0.6210803 2.2179554 0.29560938
-0.18247263 0.14568478 0.06155995 -0.5150622 0.07096519 -0.20357503 -1.773972 0.288533
-0.27067855 -0.42237663 0.33426216 0.34681723 0.119558446 -0.1725953 1.544029 -0.9113797
-0.05711577 0.36818525 -0.4652595 -0.62590545 -0.37024128 0.20904563 0.661226 -0.40285566
1.3081378 0.22248098 -0.44194534 1.0711821 0.14004754 -0.5331551 -0.68515867 -0.24040024
0.1681653 -0.2271776 0.29202053 0.31849235 -0.12282705 -0.41577685 1.7398677 0.4450592
-1.2893296 -0.02135378 0.16794008 0.23300163 0.2517061 -0.3078998 1.4371041 -0.35001206
-0.08397604 0.30735874 0.023456955 0.079762325 -0.1940604 0.2103149 2.029519 0.2114136
-0.032563504 0.12931642 -0.0045132483 -0.25007567 -0.18740503 -0.31577024 -2.2434971 0.24812545
0.10648155 -0.24656753 0.032443345 -0.045393556 0.07644385 -0.13876458 0.21923432 -0.29843345
0.40420714 -0.20301174 0.35512602 -0.19658352 0.09026098 0.20385648 -2.713785 -0.3122432
1.4819033 -0.1757582 0.22681598 -0.12734063 0.09583415 0.03504937 2.8414135 -0.21228443
00000000: 106f 913f 87e8 63bf d7e1 3c3e 9c9b 63be
00000010: 2b8e 28bf ab4b df3e d3a0 d23e 59b8 843e
00000020: 2298 a1bf 1108 c13e 01e2 b6be 9c81 ccbe
00000030: f234 173e e35d 82be 3b06 853e f6f1 583e
00000040: c331 94be 26f8 65be ad54 a23c 3972 e1be
00000050: 451a 893d bf23 53bf d7f4 6440 e1e8 21bf
00000060: 0d02 89be 06aa fdbc 2cbe 323d b702 a33d
00000070: e833 4c3d d8c2 863e 5b2f 11c0 f157 07bf
00000080: a341 873e ecd1 d7bd 8449 f9bd 96cb fcbd
00000090: cc5b 3cbe 0011 7cbc 5841 43be 2429 d23d
000000a0: 2fb9 18bf fe6b b83e 5686 3abe 7939 2f3e
000000b0: 888c 3a3d cb03 b0be 8c2d 06c0 cc88 38bf
000000c0: d8cf 0ebf 3393 03bf 8f77 bdbe c338 d2be
000000d0: 1a4f 403d 0269 423e 6e39 d8bf d153 f43e
000000e0: 4b59 2f3f e34d 4f3e 6aa9 a5be bd1a 183f
000000f0: 427b 583e 11d4 d7be b9dd f5bf 8fe1 043f
00000100: f78e 60be e977 723e 1adc 08bf 07b1 f03e
00000110: 76a2 d83d 1eff 1ebf fbf2 0d40 1d5a 973e
00000120: 1bda 3abe 642e 153e 4926 7c3d 1edb 03bf
00000130: 3356 913d f975 50be 8411 e3bf 99ba 933e
00000140: 6196 8abe c041 d8be 6924 ab3e 0792 b13e
00000150: 0fdb f43d d3bc 30be bea2 c53f 2e50 69bf
00000160: 3af2 69bd c782 bc3e 7e36 eebe 573b 20bf
00000170: 4490 bdbe 0f10 563e 1b46 293f 1943 cebe
00000180: 0f71 a73f 0ed2 633e a946 e2be 7f1c 893f
00000190: 9f68 0f3e da7c 08bf 8f66 2fbf 7b2b 76be
000001a0: 8633 2c3e 3fa1 68be b783 953e 6e11 a33e
000001b0: c08c fbbd b4e0 d4be fcb3 de3f cdde e33e
000001c0: c108 a5bf 1fee aebc 7cf8 2b3e fb97 6e3e
000001d0: 9fdf 803e 0ba5 9dbe 07f3 b73f c834 b3be
000001e0: a1fb abbd 205e 9d3e cd28 c03c 6e5a a33d
000001f0: c5b7 46be ca5c 573e a4e3 0140 cf7c 583e
00000200: 4f61 05bd 866b 043e dfe3 93bb eb09 80be
00000210: 1be7 3fbe a3ac a1be 7595 0fc0 9914 7e3e
00000220: 0013 da3d 337c 7cbe 50e3 043d 98ee 39bd
00000230: 988e 9c3d 4d18 0ebe f67e 603e 45cc 98be
00000240: 3df4 ce3e 4fe2 4fbe 14d3 b53e 314d 49be
00000250: c0da b83d c1bf 503e a7ae 2dc0 57de 9fbe
00000260: 02af bd3f f5f9 33be 7342 683e 9565 02be
00000270: b244 c43d ee8f 0f3d b8d9 3540 1761 59be

bias f4 [20]
-0.32858428 -2.0601935 -0.7979339 2.490399 0.080328345 1.7616111 -0.5427594 0.020216368
1.5155245 2.4041333 0.105110765 -0.48324877 -0.64407074 1.7010232 -1.6932985 -1.7223006
1.8095638 -0.055208296 3.3864412 -1.5114487
00000000: 333c a8be 36da 03c0 6545 4cbf b262 1f40
00000010: 3083 a43d 797c e13f 48f2 0abf cc9c a53c
00000020: b5fc c13f 52dd 1940 5044 d73d 626c f7be
00000030: d2e1 24bf 21bb d93f 01be d8bf 5974 dcbf
00000040: c99f e73f 1822 62bd 74bb 5840 2777 c1bf

weight f4 [20, 20]
-0.26135522 -0.1498253 0.16480073 0.29350653 -0.18001318 0.17027567 -0.48636574 0.15728855
-0.49217045 -0.07922048 1.2637877 -0.025324875 0.03471438 -0.14376117 0.004692266 -0.050295178
0.16897541 -0.11944218 -0.3978226 -0.13172072 0.020058943 -0.005135623 0.18177137 0.030981569
0.09506208 0.5404402 -0.09263671 0.1195889 -0.3923339 0.14037813 0.9051093 0.38227656
-0.1209731 0.022370677 -0.473732 0.0128510175 0.05499873 -0.15591198 0.57805073 -0.5173095
0.021811444 0.059231233 -0.044343825 0.041417778 0.20327401 0.0030119345 0.09981282 -0.26278177
-0.10445133 -0.15341233 0.14848824 0.19023374 -0.06361614 0.041192766 0.086677395 -0.14331238
0.017064309 0.16119269 -0.20127495 -0.21146171 -0.31202886 0.03957583 0.039913747 -0.22911124
0.142566 -0.09688622 -0.110576235 -0.23816678 0.0644053 -0.34061673 0.18884398 -0.17392588
-0.0669028 -0.21869251 -0.14604121 0.017975442 -0.027045807 0.047580063 -0.01902729 0.06577925
0.5722584 0.0458717 -0.0983363 -0.18654154 -0.18264818 -1.5254347 0.66816443 0.12481662
-1.8121496 -0.49358743 -1.0034324 0.042792767 -0.27209175 -0.20741849 0.109799534 -0.10438639
-0.085758165 -0.011349484 -0.01549792 -0.059144106 0.4857557 -0.0057693734 -0.18958448 -0.48491716
-0.0057946146 -0.17838863 0.3358729 0.16406484 -0.27152818 0.12716526 -1.1768175 -0.11222204
-0.29193467 0.32557222 -0.04707518 0.13297845 0.19195211 -0.16257675 -0.16609731 -0.009423699
-0.20597354 -0.061180413 0.12953845 -0.02747575 0.1057848 -0.027803559 -0.56711984 0.2055066
-0.078766815 -0.21312802 1.2264785 0.3639287 -0.121950515 0.3439921 -0.114922255 -0.12927055
0.11828499 0.1551468 -0.19058931 0.15582293 0.16010588 0.11785129 -0.029995397 -0.06569674
-0.12302731 -0.432092 -1.3274153 -0.59777224 -0.06655918 -0.26298586 0.37953666 -0.6490608
-0.17455618 -0.35337788 -0.58563966 0.39042228 -0.15539269 -0.10309565 -0.10031028 -0.8337104
0.064266324 -0.098605685 -0.010765183 -0.1496307 -0.18361723 0.12600715 -0.13567409 -0.2812478
0.06982233 -0.08432768 0.08250475 -0.21290435 -0.10464622 -0.15991673 0.07854975 0.062314034
-0.2165422 -0.051296905 -0.14383227 -0.2139177 -0.10720165 -0.016852379 -0.10209309 -0.013494932
-0.1781485 -0.07593256 -0.112255484 -0.26215777 0.119333714 -0.050760105 0.14114448 0.11085445
0.03517154 0.14343244 -0.16285597 -0.061873056 -0.23444442 0.19816312 -0.048542257 -0.21383229
-0.4760798 -2.7436793 -0.35394272 0.52572656 -0.17340696 1.165345 1.1011088 -0.39524415
0.16476887 0.30824095 0.74667287 0.6099281 -2.5058653 0.48573822 0.15973786 -0.16195436
-0.13720062 -0.19230933 -0.65245193 0.4138274 -0.12019359 0.03775962 0.26626676 -0.026440222
0.17586952 0.20221451 -0.21162783 0.27486262 0.123801515 -0.07547621 0.8988683 -1.5410808
0.23848617 0.7567861 0.19134183 -0.38403505 -0.333909 -0.1591304 -0.16099052 -0.41670242
0.15428357 0.020026248 -0.081479385 -0.22566387 -0.17202726 0.0574294 0.4237284 0.13120022
-0.008086768 -0.0073589915 -0.7533739 -0.21408692 0.14752361 0.37529185 0.088252395 0.17364258
00000000: 5ad0 85be ce6b 19be 86c1 283e 7d46 963e
00000010: 6055 38be bf5c 2e3e ee04 f9be 4010 213e
00000020: c4fd fbbe 593e a2bd ccc3 a13f 1d76 cfbc
00000030: aa30 0e3d 2136 13be 95c1 993b 5102 4ebd
00000040: e407 2d3e 1a9e f4bd 67af cbbe cce1 06be
00000050: a752 a43c ba48 a8bb 4622 3a3e 0fcd fd3c
00000060: e8af c23d 4a5a 0a3f 51b8 bdbd 06eb f43d
00000070: fddf c8be 49bf 0f3e 3eb5 673f c1b9 c33e
00000080: bfc0 f7bd b642 b73c 008d f2be 138d 523c
00000090: 5946 613d 64a7 1fbe 22fb 133f 656e 04bf
000000a0: eaad b23c 739c 723d dfa1 35bd b0a5 293d
000000b0: 1027 503e e063 453b aa6a cc3d 558b 86be
000000c0: 94ea d5bd 1f18 1dbe 4d0d 183e a2cc 423e
000000d0: 2e49 82bd bfb9 283d eb83 b13d 7bc0 12be
000000e0: 73ca 8b3c b20f 253e 051b 4ebe 6b89 58be
000000f0: 3fc2 9fbe 441a 223d 997c 233d 239c 6abe
00000100: d2fc 113e 486c c6bd cb75 e2bd fee1 73be
00000110: ede6 833d 5165 aebe 5160 413e a019 32be
00000120: 5604 89bd eef0 5fbe d48b 15be 3c41 933c
00000130: 2b8f ddbc 50e3 423d 1fdf 9bbc 45b7 863d
00000140: 877f 123f f7e3 3b3d 8b64 c9bd bf04 3fbe
00000150: 2008 3bbe 7241 c3bf d30c 2b3f db9f ff3d
00000160: 85f4 e7bf 7eb7 fcbe 7970 80bf 7847 2f3d
00000170: 9c4f 8bbe 8365 54be 94de e03d 88c8 d5bd
00000180: faa1 afbd 30f3 39bc fdea 7dbc 1741 72bd
00000190: f9b4 f83e 030d bdbb 6f22 42be 1047 f8be
000001a0: c0e0 bdbb 82ab 36be 88f7 ab3e 9d00 283e
000001b0: be05 8bbe 9c37 023e f5a1 96bf abd4 e5bd
000001c0: 7678 95be 67b1 a63e e7d1 40bd 812b 083e
000001d0: 188f 443e 857a 26be 6a15 2abe dc65 1abc
000001e0: baea 52be 5098 7abd baa5 043e d314 e1bc
000001f0: b4a5 d83d 4ac4 e3bc c42e 11bf 5270 523e
00000200: 7f50 a1bd 3b3e 5abe 3ffd 9c3f dd54 ba3e
00000210: 31c1 f9bd bc1f b03e 5c5c ebbd 805f 04be
00000220: 673f f23d cede 1e3e d829 43be 0c90 1f3e
00000230: ccf2 233e 045c f13d e8b8 f5bc 038c 86bd
00000240: bef5 fbbd 2a3b ddbe bfe8 a9bf 9a07 19bf
00000250: 2e50 88bd 15a6 86be a152 c23e d928 26bf
00000260: dbbe 32be f2ed b4be 7bec 15bf 6ee5 c73e
00000270: 431f 1fbe d023 d3bd 7a6f cdbd 0b6e 55bf
00000280: 109e 833d c7f1 c9bd 7360 30bc ca38 19be
00000290: 2806 3cbe 0508 013e 26ee 0abe b6ff 8fbe
000002a0: 02ff 8e3d feb3 acbd 40f8 a83d 9903 5abe
000002b0: c250 d6bd 36c1 23be b1de a03d 003d 7f3d
000002c0: 3dbd 5dbe b41c 52bd c448 13be 3e0d 5bbe
000002d0: 8a8c dbbd 000e 8abc 2f16 d1bd d919 5dbc
000002e0: 8f6c 36be 8882 9bbd 34e6 e5bd 8b39 86be
000002f0: 3c65 f43d d4e9 4fbd 2e88 103e a807 e33d
00000300: 0810 103d f4df 123e b7c3 26be 9a6e 7dbd
00000310: 3312 70be 46eb 4a3e 3fd4 46bd daf6 5abe
00000320: bbc0 f3be 7198 2fc0 fb37 b5be 0496 063f
00000330: 9891 31be 062a 953f 22f1 8c3f 715d cabe
00000340: 2cb9 283e c2d1 9d3e f425 3f3f 3f24 1c3f
00000350: 1960 20c0 aeb2 f83e 5292 233e 5dd7 25be
00000360: 527e 0cbe bdec 44be 1707 27bf 2fe1 d33e
00000370: 0f28 f6bd d5a9 1a3d 1e54 883e 2a99 d8bc
00000380: 2417 343e 5211 4f3e f7b4 58be cbba 8c3e
00000390: a68b fd3d 4593 9abd 3c1c 663f 2342 c5bf
000003a0: b835 743e bcbc 413f 1def 433e 3ea0 c4be
000003b0: 1ff6 aabe 14f3 22be b3da 24be 055a d5be
000003c0: 83fc 1d3e 160e a43c aade a6bd 6e14 67be
000003d0: ea27 30be 173b 6b3d eef2 d83e 5a59 063e
000003e0: 5d7e 04bc b223 f1bb 1ddd 40bf 9a39 5bbe
000003f0: 6e10 173e 4126 c03e acbd b43d 5ccf 313e

bias f4 [20]
1.5618008 2.212267 -0.085710056 -0.24634776 -1.5487696 -1.3216066 1.5122467 -0.4985679
-0.061972313 -0.16300617 0.5448562 2.1592953 -1.4354081 -0.169896 -1.1166604 -2.7602465
-0.5589885 -0.14672723 0.1188669 1.9930483
00000000: 17e9 c73f c895 0d40 c188 afbd 9642 7cbe
00000010: 153e c6bf 682a a9bf 4d91 c13f 4b44 ffbe
00000020: aed6 7dbd 17eb 26be b27b 0b3f e531 0a40
00000030: 74bb b7bf 38f9 2dbe baee 8ebf e1a7 30c0
00000040: df19 0fbf aa3f 16be 7d70 f33d 351c ff3f

weight f4 [2, 20]
0.13806234 0.64104 -0.14511764 0.090274885 -1.1858143 -0.06440328 -0.108418286 0.53748333
0.25954133 -0.10186874 2.2090836 0.26691487 -0.23070768 0.018267617 -0.20129265 -0.4112003
-0.3093574 -0.061499402 0.0558255 0.54480356 -0.12913492 -0.26937342 -0.09613634 0.111291006
0.8716643 0.28346202 -0.057804592 -0.3366618 0.1585832 -0.16168787 -2.2610967 -0.3204277
0.087352574 0.03416104 0.29603758 0.55574375 0.4413125 0.09325552 0.056279156 -0.46420726
00000000: 3760 0d3e 331b 243f b899 14be 0ae2 b83d
00000010: c3c8 97bf dee5 83bd 680a debd 8298 093f
00000020: 9ae2 843e 8fa0 d0bd a061 0d40 11a9 883e
00000030: a23e 6cbe f8a5 953c a91f 4ebe d988 d2be
00000040: 1864 9ebe cce6 7bbd 48a9 643d 3f78 0b3f
00000050: f23b 04be 50eb 89be 21e3 c4bd 8aec e33d
00000060: 6425 5f3f ef21 913e 82c4 6cbd ef5e acbe
00000070: a263 223e 8191 25be cfb5 10c0 190f a4be
00000080: e8e5 b23d 72ec 0b3d 3d92 973e 3945 0e3f
00000090: b6f3 e13e c0fc be3d f984 663d 93ac edbe

bias f4 [2]
1.4154392 -1.7605373
00000000: 1d2d b53f 4959 e1bf
